results/models/model_relu_sym.pt (torch, 708479 bytes, 1 tensors)

weight f4 [200, 884]
000000 88 db 8e 3b 13 c0 01 3d ec f9 57 3c e8 86 35 bc
       0.0043596663 0.031677317 0.013182145 -0.011079527
000010 80 16 ab 3c 58 1e c5 3c 01 ef 06 3d 0e af 21 bc
       0.020884752 0.02406232 0.032942776 -0.009868396
000020 30 c3 f5 3b 7c 53 0e 3c 8a e0 c6 3c 24 db 80 3c
       0.007500075 0.008686896 0.02427699 0.015729494
000030 b0 4c 23 3c bc 22 66 3c d4 2a 84 bb ac 3c b4 bb
       0.009967014 0.014046367 -0.004033426 -0.0055003967
000040 0c 04 52 bc 61 57 08 bd 28 99 65 bc ba 77 ba bc
       -0.012818348 -0.033286456 -0.014013566 -0.022762168
000050 c0 b1 5e 3a cb 0e 05 3d 21 08 01 bd 0e 3e dd bc
       0.0008495115 0.03248481 -0.031501893 -0.027007129
000060 84 33 48 3c e4 b0 8a 3c da 96 80 3c 81 a1 ae bc
       0.0122193135 0.016930051 0.015696932 -0.021317245
000070 28 cc 9a bb c0 0b 16 ba b8 4f d0 3c bd ae 08 3d
       -0.0047240444 -0.0005723797 0.025428638 0.03336977
000080 99 c6 01 bd 44 23 05 3c f8 07 83 bb 00 63 b9 3b
       -0.031683538 0.008126084 -0.0039987527 0.0056575537
000090 f2 20 83 3c 1e 80 f4 bc ea bf bb bc 5a 28 e3 3c
       0.01600692 -0.029846247 -0.02291866 0.027729202
0000a0 f0 29 3f 3b a6 2f ff 3c 70 b7 2f bb de 4c 76 bc
       0.0029169284 0.03115065 -0.0026812218 -0.015032975
0000b0 4e 2e c7 bc 17 9a 9e bc c0 19 c5 bb 82 de fa 3c
       -0.024314072 -0.019360585 -0.0060150325 0.030623678
0000c0 00 04 bc bc f8 f3 9e 3c 80 22 f6 3b 61 b7 cf bc
       -0.022951126 0.019403443 0.007511437 -0.025355997
0000d0 ba 89 99 bc 00 ca 7d ba 0f 6b e8 bc e8 c0 57 3c
       -0.018742431 -0.00096812844 -0.028371362 0.013168551
0000e0 40 10 b8 bc d0 a0 61 3b 08 fc 4d bc 1a 54 19 bc
       -0.022468686 0.0034428127 -0.012572296 -0.00935843
0000f0 51 01 00 3d ca bd be 3c 4c 7f b2 3c 3e 9a f0 bc
       0.031251255 0.023283858 0.021789216 -0.029370423
000100 ea 12 c2 bc 52 e4 db 3c 42 c0 c3 3c 72 bc ff 3c
       -0.02369066 0.02684227 0.023895387 0.031217787
000110 e6 2c 33 bc c8 c1 e1 bc f8 a9 aa bc f8 45 c2 bc
       -0.010935998 -0.027558222 -0.020833 -0.023715004
000120 39 bb 02 bd c1 f8 9b bc a0 75 d4 3a c8 29 b0 3c
       -0.03191683 -0.019039514 0.0016209371 0.021504298
000130 71 93 83 bc 22 fb 9b 3c 7c ac 44 3c 20 86 5b bc
       -0.016061516 0.019040648 0.012004014 -0.013398677
000140 20 12 c9 3a e8 a2 17 bc d0 6a 51 3c 80 24 d0 3c
       0.0015340485 -0.0092551485 0.012781814 0.02540803
000150 58 0c 69 3c 0c 5e ab 3c 00 da 31 39 18 09 f7 bb
       0.014224134 0.020918868 0.00016961247 -0.007538926
000160 42 26 ef 3c 91 86 86 bc 46 33 88 3c 50 10 d9 3c
       0.029193047 -0.016421588 0.016626012 0.026497036
000170 f0 b6 0b bc cc 72 e8 3c 0c ff ec bc 60 22 16 bb
       -0.008527502 0.028375052 -0.02893021 -0.0022908673
000180 a6 29 3e bc c2 58 90 3c 9a fe e9 bc 55 23 09 3d
       -0.011606609 0.017620448 -0.028563786 0.03348096
000190 10 1e 01 bb 9d 24 03 3d b7 a0 ed bc b8 58 de bc
       -0.0019701757 0.03201734 -0.029007299 -0.027141914
0001a0 40 81 d1 ba 6e 2a c1 bc 58 fa 4c 3c 28 91 31 bc
       -0.0015983954 -0.023579802 0.0125108585 -0.010837831
0001b0 8a 63 c8 bc a0 cd 4b 3c da 4a 40 bc f2 36 90 bc
       -0.024461526 0.012439162 -0.011736596 -0.017604325
0001c0 9c 01 16 bc 40 89 50 3a 16 c2 af 3c 36 fb fc 3c
       -0.009155657 0.0007955022 0.021454852 0.030881505
0001d0 ab 59 01 3d 42 15 2e bc 26 9e 74 bc 04 74 d5 bc
       0.031579655 -0.010625185 -0.014930284 -0.026056297
0001e0 1a e2 dc 3c 4f 9c f3 bc 9a a7 03 bd 30 63 3c bd
       0.026963282 -0.02973762 -0.03214226 -0.04599303
0001f0 34 d4 ae bd 36 c2 b7 bd 1c 58 8a bd 66 ea 94 bd
       -0.08536568 -0.0897259 -0.06755087 -0.072712705
000200 9a f1 27 bd 42 a3 40 bd 56 78 a6 bd e8 e3 4b bd
       -0.041001894 -0.047030695 -0.08128421 -0.049777895
000210 a5 dd 9f bd 9e 20 dd bc 96 17 b3 3c 26 db 85 3c
       -0.07805947 -0.026993092 0.021861833 0.01633985
000220 34 a3 bb 3c 5a 41 6b bc bf 66 01 3d fa c1 b0 3c
       0.02290497 -0.014358843 0.031592127 0.02157687
000230 ce b9 c9 3c 20 46 ee 3a f4 a7 a7 bb 00 cf 85 3c
       0.024624731 0.0018178858 -0.005116457 0.016334057
000240 fc 5b 42 3c cc 5d d9 3c f4 80 76 3c 5e 16 05 bd
       0.011862751 0.026533984 0.015045393 -0.032492034
000250 40 29 12 bd 25 7d 89 bd 42 10 b7 bd de 73 10 bd
       -0.03568387 -0.067133226 -0.08938648 -0.03526675
000260 ea 09 5c bd f7 80 be bd a8 a4 5d bd b9 98 23 bd
       -0.053720392 -0.09301942 -0.054112107 -0.03994057
000270 5d d9 90 bd 5d 6a 09 bd 4f 1d 38 bd 92 a8 b4 bd
       -0.07072709 -0.0335487 -0.044949826 -0.08821215
000280 c0 d5 af bd 3e 92 1c bd 3e 40 04 bd 96 96 b9 3c
       -0.085856915 -0.038225405 -0.03228783 0.022654813
000290 5e 95 bb bc d8 31 48 bc 94 92 a1 bc e4 9c 14 bc
       -0.022898372 -0.012218915 -0.019723214 -0.009070609
0002a0 ec 7d fa bb 80 53 b4 ba a4 5c e9 3c 50 90 94 bb
       -0.0076444056 -0.0013757795 0.028486557 -0.004533805
0002b0 f4 46 8d bb ae 3e da bc 18 49 c2 bb e0 dc fe 3b
       -0.004311437 -0.026641216 -0.0059291236 0.007777795
0002c0 16 3b 72 bd 35 95 08 bd cc 99 91 bd de 36 ad bd
       -0.05913838 -0.03334542 -0.071094126 -0.08457731
0002d0 60 1a 3a bd 9d 35 8e bd e4 57 96 bd f5 c8 41 bd
       -0.04543531 -0.0694382 -0.073409826 -0.04731079
0002e0 18 5b 9e bd 80 68 b8 bd 68 08 a1 bd a4 51 ac bd
       -0.077322185 -0.09004307 -0.078629315 -0.08414009
0002f0 05 b9 0c bd 4c 56 fd bc b5 34 ae bc 3e d4 8c 3c
       -0.034356136 -0.030924939 -0.021265367 0.017191049
000300 68 eb 90 3b 62 9b 8c 3c 98 39 d9 3c 42 57 dc 3c
       0.004422594 0.017163936 0.02651672 0.026897077
000310 fc 0f cb bb e8 1c 9e bb 3d 27 85 bc 61 5e e5 bc
       -0.006196974 -0.0048252232 -0.016254062 -0.027999105
000320 36 59 47 bc e8 7d c9 3b 50 5f 76 bc 76 04 3c bc
       -0.012167266 0.0061490424 -0.015037373 -0.011475673
000330 6c 54 58 3c 3d 50 05 3d 00 6b 52 3b 0c 6f 2c bd
       0.0132037215 0.032547224 0.0032107234 -0.04209809
000340 aa 9d ab bd 69 97 56 bd 21 4f 10 bd 7d bd b3 bd
       -0.083796814 -0.05239049 -0.035231713 -0.087763764
000350 ef 27 ba bd 4f 58 f6 bc 9e 40 a5 bd 50 61 9b bd
       -0.09089648 -0.030071406 -0.080689654 -0.0758692
000360 eb c3 aa bd 1e 9a a1 bd 85 fd b0 bd c0 0f 06 bd
       -0.0833815 -0.07890724 -0.08642105 -0.032729864
000370 39 b8 72 bd 22 0f 64 bc 8c c5 ed bb 46 21 e2 3c
       -0.05925772 -0.013919624 -0.0072562154 0.027603757
000380 80 18 94 3b e4 a0 66 bc 2e 43 c7 3c 14 4b 58 bc
       0.004519522 -0.014076445 0.024324026 -0.013201494
000390 d0 74 19 3b 60 59 3a 3b f5 6b 83 bc a0 f2 96 bb
       0.0023415573 0.002843462 -0.016042689 -0.00460656
0003a0 20 2b 0e 3c f4 0a ca 3c 34 1e bd 3c 12 35 b1 bd
       0.008677274 0.024663426 0.023085691 -0.086527005
0003b0 4c df 85 bd 93 06 2b bd b4 0c 5f bd 30 68 bc bd
       -0.06536731 -0.041754317 -0.054455474 -0.0919956
0003c0 bf 8a bb bd be e8 99 bd c3 e0 d9 bc 67 70 13 bd
       -0.09157323 -0.07515095 -0.026596433 -0.035995867
0003d0 a4 1e 97 bd 11 4e 52 bd 3d c4 7d bd 79 da a3 bd
       -0.07378891 -0.05134398 -0.061954726 -0.08000655
0003e0 6b 52 87 bd 0a e1 71 bc 40 ba 48 3c 94 93 07 bc
       -0.06607517 -0.014763126 0.012251437 -0.008274931
0003f0 dd 3b a0 bc 16 f2 e6 3c 66 a3 fe 3c 40 8b 36 bb
       -0.019559795 0.028191607 0.031083774 -0.0027853996
