results/models/model_relu_standard.pt (torch, 708504 bytes, 1 tensors)

weight f4 [200, 884]
0	0xbcc0d428	-0.023538664
1	0xbbddc27c	-0.006767569
2	0x3d016c5f	0.03159749
3	0x3ca8555c	0.020548515
4	0xbd06c1d1	-0.03289968
5	0x3cc7b55a	0.024378467
6	0x3cec8252	0.028870735
7	0x3b533310	0.003222648
8	0x3b535a40	0.0032249838
9	0x3b2ce8b0	0.002638381
10	0xbc00d616	-0.007863542
11	0x3c426684	0.011865262
12	0xba1a6d40	-0.00058909133
13	0xbc98bc60	-0.018644512
14	0x3cc4fda4	0.024046727
15	0x3c48ae4c	0.012248587
16	0x3bc96b08	0.0061467923
17	0x3c657f54	0.014007408
18	0x3c9714de	0.018442567
19	0x3b7ad1a0	0.003827192
20	0xbcced25e	-0.025246795
21	0x3cd9e0a8	0.026596382
22	0x3d07e31b	0.03317557
23	0xbcb6feca	-0.02233829
24	0xbc6bdb5c	-0.014395561
25	0x3c70f214	0.014706153
26	0xbcd0453a	-0.025423635
27	0xbb70bcb8	-0.003673358
28	0xbcb35424	-0.021890707
29	0x3c177668	0.009244539
30	0x3ca16476	0.019701224
31	0x3c6a8520	0.014313966
32	0xbb995068	-0.0046787746
33	0x3c353f58	0.011062466
34	0xb8d8a200	-0.000103298575
35	0x3c100ed0	0.008792594
36	0x3c3d5304	0.011555437
37	0xbcc06aa4	-0.02348835
38	0xba5c4d40	-0.0008403845
39	0xbc4eae86	-0.012614852
40	0xbce7d672	-0.028300498
41	0xbca025d8	-0.019549295
42	0x3c4f5ac0	0.012655914
43	0x3c9f3824	0.01943595
44	0xbca952bd	-0.020669335
45	0x3d06b43f	0.03288674
46	0x3cbed78c	0.02329614
47	0xbcb04bb2	-0.02152047
48	0x3cacea06	0.021107685
49	0xba4e7900	-0.0007876307
50	0x3afc45a0	0.0019246824
51	0xbca51466	-0.020151328
52	0x3baebc18	0.005332481
53	0xbc838796	-0.016055863
54	0x3cab2e70	0.020896167
55	0x3ca683a4	0.020326443
56	0xbbff54b8	-0.0077920817
57	0x3c9a1738	0.0188099
58	0xbcb9988d	-0.02265575
59	0x3cabc8b4	0.020969726
60	0x3ccd2598	0.02504234
61	0xbc7dd630	-0.015492961
62	0xbd070564	-0.032964125
63	0x3cd50328	0.026002482
64	0xbcdc95f8	-0.02692698
65	0x3ce023aa	0.027360756
66	0x3cf03c79	0.02932571
67	0x3d4b13ac	0.049579307
68	0x3d260de9	0.04054061
69	0xbd0395b7	-0.0321252
70	0x3c4113a4	0.011784468
71	0x3cbabedc	0.022796087
72	0xbcfff97a	-0.03124689
73	0x3a8da5c0	0.0010806844
74	0x3cbb2f4a	0.022849698
75	0xbc01358e	-0.007886304
76	0xbc91cc62	-0.017797653
77	0xbccff2a2	-0.025384251
78	0xbd4cbf0d	-0.049986888
79	0xbda9e4de	-0.08295606
80	0xbdab5967	-0.083666615
81	0xbd19ab2d	-0.03751676
82	0xbc037022	-0.00802234
83	0xbcf15dbe	-0.029463645
84	0x3d05fcff	0.03271198
85	0xbc25eb78	-0.010126941
86	0xbc7fb0b6	-0.015606096
87	0x3ced5852	0.028972778
88	0x3c5a0098	0.013305806
89	0x3c92c1aa	0.017914612
90	0xbca8c25a	-0.020600487
91	0xbc86d4d5	-0.016458908
92	0x3c83e5fe	0.01610088
93	0x3d82e7f1	0.063918956
94	0x3d723d20	0.059140325
95	0x3cc7fda7	0.024412943
96	0x3db28948	0.087175906
97	0xbd09ea08	-0.033670455
98	0xbd99e470	-0.07514274
99	0xbd1a57d3	-0.037681412
100	0xbd7de958	-0.061990112
101	0xbd5ed75a	-0.054404594
102	0x3d614cb3	0.055004787
103	0x3d364877	0.0445027
104	0x3db4a400	0.08820343
105	0xbd1e5dbf	-0.038663622
106	0xbd5fa155	-0.054597218
107	0xbd13cdfe	-0.03608512
108	0xbce723f8	-0.028215393
109	0x3ca6ee64	0.020377345
110	0x3ce6d6f6	0.028178673
111	0x3cde866c	0.027163707
112	0xbcbe3024	-0.023216315
113	0xbd037329	-0.032092247
114	0x3ca7c922	0.02048165
115	0xbc9760ee	-0.018478837
116	0xbced05d1	-0.028933438
117	0x3c245c08	0.010031708
118	0xbe3cb265	-0.18427427
119	0xbe8c0786	-0.2734949
120	0xbe64e0fe	-0.22351453
121	0xbd5a2d75	-0.053266007
122	0x3d5be852	0.053688355
123	0xbabb0e9c	-0.0014271322
124	0xbd7528b8	-0.059853286
125	0xbd58802f	-0.05285662
126	0xbd14a00b	-0.03628544
127	0xbd118475	-0.03552671
128	0xbd963064	-0.073334485
129	0xbd7f5393	-0.062335562
130	0xbd6de002	-0.05807496
131	0xbd8e8390	-0.06958687
132	0xbd88ff4c	-0.06689319
133	0xbd6f2e4a	-0.058393754
134	0xbd320452	-0.04346115
135	0xbd3803bf	-0.044925448
136	0xbd1e6894	-0.038673952
137	0x3b38b740	0.0028185397
138	0x3cc6749a	0.024225522
139	0xbcf6c54a	-0.030123372
140	0xbd047d6e	-0.03234618
141	0x3c33e984	0.010980967
142	0xbd029899	-0.03188381
143	0x3d61d8cf	0.055138405
144	0x3d234c95	0.039867956
145	0x3d605ad6	0.054774128
146	0xbe901b21	-0.28145698
147	0xbe559a77	-0.20859705
148	0xbd6a5a04	-0.05721475
149	0x3d878782	0.06617643
150	0x3d443c09	0.047908816
151	0x3c18dce3	0.009330007
152	0xbc85cff3	-0.01633451
153	0xbda5a76a	-0.08088572
154	0xbd6b2e8b	-0.057417434
155	0xbd27d827	-0.040977623
156	0xbd51786b	-0.05114023
157	0xbc27bbd3	-0.010237652
158	0xbd3e7c57	-0.0465053
159	0xbdc9988c	-0.09843549
160	0xbd51a478	-0.05118224
161	0xbd4db387	-0.05022004
162	0xbd2db24a	-0.042406358
163	0xbd6b3561	-0.057423953
164	0xbd787bc4	-0.060664907
165	0xbd6675d6	-0.05626472
166	0xbc0a2b1a	-0.008433128
167	0x3cca41e8	0.02468963
168	0xbba7f8bc	-0.005126087
169	0xbb907270	-0.0044081733
170	0x3ca8728e	0.020562436
171	0x3d5deabb	0.054178935
172	0x3d0cb4f7	0.03435227
173	0xbe0850d3	-0.13312082
174	0xbe476164	-0.19470745
175	0xbd1586d7	-0.036505546
176	0x3d0dc729	0.034613762
177	0x3b829721	0.003985301
178	0x3be0b3f1	0.006857388
179	0xbd39840d	-0.04529195
180	0xbd693554	-0.056935623
181	0xbdb8268e	-0.08991729
182	0xbda62d6f	-0.081141345
183	0xbca8722a	-0.02056225
184	0xbd8d675b	-0.06904479
185	0xbd88bf7f	-0.0667715
186	0xbd36531f	-0.044512864
187	0xbd9cee39	-0.07662625
188	0xbdadbbab	-0.084830604
189	0xbdb8798b	-0.090075575
190	0xbd9869bb	-0.074420415
191	0xbd32eded	-0.043683935
192	0xbd384a2c	-0.04499261
193	0x3c63f3d4	0.013913114
194	0xbcac23ee	-0.021013226
195	0xbca32ff2	-0.019920323
196	0x3c83d790	0.016094
197	0x3caed884	0.021343477
198	0x3d00616d	0.031342912
199	0x3d1369c3	0.035989534
200	0x3da8ea5a	0.08247824
201	0xbda7b89d	-0.08189509
202	0x3caf719b	0.021416476
203	0xbd93a308	-0.0720883
204	0x3d1a53d3	0.037677597
205	0xbcbc9122	-0.023018423
206	0x3af53d1b	0.0018710227
207	0xbc29e1ed	-0.010368806
208	0xbd1830c2	-0.037155874
209	0xbb8cc4b0	-0.004295908
210	0xbd744ee8	-0.059645563
211	0xbd685f62	-0.05673159
212	0xbd84741a	-0.06467457
213	0xbc81363b	-0.01577293
214	0xbd865fee	-0.06561266
215	0xbdbbb0e3	-0.09164598
216	0xbda6e98f	-0.081500165
217	0xbd99ea14	-0.0751535
218	0xbda7db8c	-0.08196172
219	0xbd817ff3	-0.063232325
220	0xbd977b50	-0.07396567
221	0x3d72d0ad	0.05928104
222	0x3da07385	0.078345336
223	0xbbb3d9e4	-0.005488621
224	0xbc1b0c04	-0.009463314
225	0xbcfbc513	-0.03073362
226	0x3cf314a2	0.029672924
227	0x3cc11312	0.023568664
228	0x3d4c2bf9	0.049846623
229	0x3cfb89f8	0.030705437
230	0xbd986505	-0.07441143
231	0x3cc2a920	0.023762286
232	0x3d605d54	0.054776505
233	0x3c7c99ff	0.015417575
234	0xbb4825bd	-0.0030540072
235	0xbb56bf64	-0.0032767886
236	0xbcf431ea	-0.029808957
237	0xbc9367f7	-0.01799391
238	0xbc5eb82b	-0.013593714
239	0xbd090d57	-0.033459987
240	0xbc1115b0	-0.008855268
241	0xbd520eab	-0.05128352
242	0xbd06a94b	-0.032876294
243	0xbd82a12e	-0.06378399
244	0xbda0a729	-0.07844383
245	0xbd86d500	-0.06583595
246	0xbc1040c4	-0.008804504
247	0x3d412968	0.04715863
248	0x3d07339e	0.03300821
249	0x3d701519	0.05861387
250	0x3d8287be	0.06373547
251	0x3bae3b30	0.0053171143
252	0x3d09fb72	0.033687063
253	0x3d090cc6	0.033459447
254	0xbd474585	-0.048650283
255	0xbd8938ca	-0.06700285
